…
iniLM', val_ratio=0.2, walk_length=1, weight_decay=0.0)
2024-11-12 11:07:12,293 - root - INFO - node feature size (31797, 384)
2024-11-12 11:07:12,293 - root - INFO - edge feature size (267, 384)
2024-11-12 11:07:12,294 - root - INFO - node feature example [-0.04968665  0.08126714  0.00882058  0.00811328 -0.01529019]
2024-11-12 11:07:12,294 - root - INFO - edge feature example [ 0.07841122 -0.01849676  0.0142727   0.01422792 -0.04077128]
2024-11-12 11:07:12,463 - root - INFO - model -> Sequential(
  (0): DyGFormer(
    (temporal_chain): TemporalChain()
    (time_encoder): TimeEncoder(
      (w): Linear(in_features=1, out_features=100, bias=True)
    )
    (neighbor_co_occurrence_encoder): NeighborCooccurrenceEncoder(
      (neighbor_co_occurrence_encode_layer): Sequential(
        (0): Linear(in_features=1, out_features=50, bias=True)
        (1): ReLU()
        (2): Linear(in_features=50, out_features=50, bias=True)
      )
    )
    (projection_layer): ModuleDict(
      (node): Linear(in_features=384, out_features=50, bias=True)
      (edge): Linear(in_features=384, out_features=50, bias=True)
      (time): Linear(in_features=100, out_features=50, bias=True)
      (neighbor_co_occurrence): Linear(in_features=50, out_features=50, bias=True)
      (temporal_chain): Linear(in_features=484, out_features=200, bias=True)
    )
    (transformers): ModuleList(
      (0-1): 2 x TransformerEncoder(
        (multi_head_attention): MultiheadAttention(
          (out_proj): NonDynamicallyQuantizableLinear(in_features=200, out_features=200, bias=True)
        )
        (dropout): Dropout(p=0.1, inplace=False)
        (linear_layers): ModuleList(
          (0): Linear(in_features=200, out_features=800, bias=True)
          (1): Linear(in_features=800, out_features=200, bias=True)
        )
        (norm_layers): ModuleList(
          (0-1): 2 x LayerNorm((200,), eps=1e-05, elementwise_affine=True)
        )
      )
    )
    (temporal_chain_encoder): TemporalChainEncoder(
      (multi_head_attention): MultiheadAttention(
        (out_proj): NonDynamicallyQuantizableLinear(in_features=200, out_features=200, bias=True)
      )
      (dropout): Dropout(p=0.1, inplace=False)
      (linear_layers): ModuleList(
        (0): Linear(in_features=200, out_features=400, bias=True)
        (1): Linear(in_features=400, out_features=200, bias=True)
      )
      (norm_layers): ModuleList(
        (0-1): 2 x LayerNorm((200,), eps=1e-05, elementwise_affine=True)
      )
    )
    (temporal_chain_fusion_layer): RawTemporalChainFusion4DyGFormer(
      (fusion_layer): MergeLayer(
        (fc1): Linear(in_features=400, out_features=400, bias=True)
        (fc2): Linear(in_features=400, out_features=400, bias=True)
        (act): ReLU()
      )
      (layer_norm): LayerNorm((200,), eps=1e-05, elementwise_affine=True)
      (dropout): Dropout(p=0.1, inplace=False)
    )
    (output_layer): ModuleDict(
      (graph_modal): Linear(in_features=200, out_features=384, bias=True)
      (text_modal): Linear(in_features=200, out_features=384, bias=True)
    )
    (merge_layer): MergeLayer(
      (fc1): Linear(in_features=1168, out_features=384, bias=True)
      (fc2): Linear(in_features=384, out_features=384, bias=True)
      (act): ReLU()
    )
  )
  (1): MergeLayer(
    (fc1): Linear(in_features=768, out_features=384, bias=True)
    (fc2): Linear(in_features=384, out_features=1, bias=True)
    (act): ReLU()
  )
)
2024-11-12 11:07:12,464 - root - INFO - model name: DyGFormer, #parameters: 11205340 B, 10942.71484375 KB, 10.68624496459961 MB.
2024-11-12 11:09:39,657 - root - INFO - Epoch: 1, train for the 500-th batch, train loss: 0.21346977353096008
2024-11-12 11:12:11,070 - root - INFO - Epoch: 1, train for the 1000-th batch, train loss: 0.21045762300491333
…
